.torchcommit/run_4/model.pth (torch, 33237 bytes, 2 tensors)

linear.weight f4 [10, 784]
000000 ee f3 f9 bc 5e 6f c5 bc fc 6c 7c 3c ca bc 4d 3b
       -0.030511823 -0.024100956 0.015406843 0.0031393045
000010 21 d5 6c 3c 58 b9 69 bc 5e 2c d7 bc c0 ef 85 bc
       0.014455111 -0.014265381 -0.026266273 -0.016349673
000020 3f bf 07 3d 22 63 0e 3d 9a 30 ef bc a5 dc e8 3b
       0.03314137 0.03476251 -0.02919798 0.007106381
000030 d8 52 0b 3d 16 d3 ec bc a1 36 28 3c 30 3b 14 3c
       0.034014553 -0.028909247 0.010266931 0.0090473145
000040 6e 8e 5d bc ea 2c 90 bc 4a c9 2c 3c d7 a8 10 bd
       -0.013522727 -0.017599542 0.010546038 -0.03531727
000050 a5 74 f3 3c 60 67 04 3c 4d 3f 0b 3d a5 ee b5 bc
       0.029718706 0.008081287 0.033995915 -0.022208521
000060 5c 10 ed bb dc 5f 8e 3b a0 eb 8d bc f7 af 0a 3d
       -0.007234616 0.0043449234 -0.017324269 0.03385922
000070 e5 13 f0 bc c5 3c 24 bc dc ac 25 bc 37 20 2b bc
       -0.029306361 -0.010024254 -0.010112014 -0.010444692
000080 df f0 49 bc 30 db ac bc 8b 62 26 bc e9 b4 f5 bc
       -0.012325495 -0.02110061 -0.01015533 -0.029993491
000090 16 a0 58 bb 92 b0 6b 3c 4f d9 fb ba 17 26 c3 3c
       -0.0033054403 0.014385359 -0.0019214543 0.023821874
0000a0 5e 54 53 3b b0 1d 97 bc e4 72 b7 bc 25 82 36 3c
       0.0032246332 -0.018446773 -0.022393651 0.011139427
0000b0 17 26 89 3c 79 4b 20 bc af e8 92 bc 2d 1d 89 3a
       0.016741795 -0.009783619 -0.017933218 0.0010460966
0000c0 db e1 0f 3d 99 40 e0 3c 91 8d 0d 3d 9b 65 08 3c
       0.035127502 0.027374553 0.034558836 0.008325006
0000d0 ee fd 0f bd 4a 11 93 bb 9a 21 04 bd 3a e1 a6 bc
       -0.035154276 -0.004488145 -0.032258607 -0.020371068
0000e0 dc e7 6f bc 43 f2 ad 3c fc 1f 1f bb dd fe 7e 3c
       -0.014642682 0.021233683 -0.0024280539 0.015563694
0000f0 42 15 3f bc f1 cf 40 bc c2 e1 e6 3c ee 29 37 3c
       -0.011662783 -0.011768327 0.028183822 0.01117943
000100 9e e5 87 bc 9f 03 67 bc 44 71 cd bc 3e c2 10 bd
       -0.016588982 -0.014099984 -0.025078423 -0.035341494
000110 17 a0 db 3c d9 1b 29 bd a2 69 49 bb ea c2 00 bd
       0.026809735 -0.041286323 -0.0030733128 -0.031435885
000120 46 2b e2 bc e9 2e 77 3b 89 41 8d bc 4a ab 01 bd
       -0.027608525 0.003771717 -0.017243164 -0.031657495
000130 51 14 de bc cd e8 85 bc f4 13 72 bc 14 c7 10 bd
       -0.027109297 -0.01634636 -0.014775265 -0.035346106
000140 ca ca 98 bc 0b 89 11 bd 8a ed e7 bc 6b f1 05 3d
       -0.018651385 -0.035531085 -0.02831151 0.032700937
000150 65 a7 e8 3b 01 91 f4 3c f3 76 52 3b 63 59 c5 3c
       0.007100033 0.0298543 0.0032114356 0.024090474
000160 af 45 0e 3d 20 54 9a 3c e5 6f 3b bb 37 b0 e8 3c
       0.034734424 0.018838942 -0.002860063 0.028404338
000170 d0 df bc bc 98 54 9d b9 a2 06 aa 3b d2 cb 35 bd
       -0.02305594 -0.000300084 0.005188779 -0.04438383
000180 79 97 68 bc fd e4 0a bd f2 b0 8d bc fa a0 5e bd
       -0.01419627 -0.033909786 -0.017296288 -0.054352738
000190 85 26 af 3a 15 58 9e bb 82 9e 0a bd 80 79 37 bd
       0.001336292 -0.0048322775 -0.03384257 -0.044793606
0001a0 8f c3 44 bd 6b b6 04 bd 77 72 ee bc 9e 34 c0 bc
       -0.04803806 -0.03240053 -0.029107315 -0.02346259
0001b0 8a 39 05 3d 98 93 fd bc 48 bb 3b bc f7 4a b9 3b
       0.032525577 -0.030954167 -0.011458226 0.0056546885
0001c0 0e 5b 92 3c f7 3d da bc 9e 70 86 bc da f2 dc 3b
       0.017865684 -0.026640875 -0.016411122 0.0067428173
0001d0 67 a4 35 ba d6 e8 b0 3c a9 5c 1c bd 2f 12 28 bc
       -0.00069291 0.0215954 -0.038174305 -0.010258242
0001e0 9a a4 75 3a 8a 08 26 bd 00 03 1b bd c6 f1 6e bd
       0.0009370536 -0.040535487 -0.037844658 -0.058336042
0001f0 61 13 99 bb 2e 7a ca 3c 74 3a 9f 3c 08 64 87 3c
       -0.0046714996 0.024716463 0.019437052 0.01652719
000200 aa d9 1e 3d d2 dd da bc a0 db ac bc e4 42 0d bd
       0.0387818 -0.0267171 -0.02110082 -0.03448762
000210 74 e7 43 3c 61 f2 0b bd 43 b4 06 bd fb 34 15 3c
       0.011957038 -0.034166697 -0.032886755 0.00910687
000220 49 d8 ad bc 76 a9 e6 3c 52 55 bd bc 35 88 79 bc
       -0.021221297 0.028156977 -0.023111973 -0.015230228
000230 38 28 62 3b 9f d9 11 bd aa 16 9b bc b2 5a c5 3c
       0.0034508836 -0.03560793 -0.018931706 0.024091098
000240 b9 dc f1 bb 8a 3b 31 3a c6 c7 33 bc e5 8f 0b bd
       -0.0073810485 0.0006760886 -0.010972923 -0.034072775
000250 3d 71 bb bc d8 f6 b1 bc f0 d6 0a bd 27 57 28 bd
       -0.022881145 -0.02172415 -0.033896387 -0.04109874
000260 b4 26 45 3c e2 4a 2a 3d 14 c7 72 3d 5a 6c 70 3d
       0.012033153 0.04157532 0.059271887 0.058697082
000270 5c 16 9d 3d 8a b5 c6 3d 92 cb 84 3d a8 1f 4d 3d
       0.0767028 0.097025946 0.064841405 0.050079018
000280 a0 45 9e 3c 58 50 0c bd f8 e9 0b bd 52 cf ff bb
       0.01932031 -0.03425631 -0.034158677 -0.007806697
000290 de dd 75 bc 21 59 e9 bc 5b 9a aa 3c 68 d8 08 3d
       -0.015006511 -0.028484883 0.020825556 0.033409506
0002a0 5c 01 14 3c f5 fe 42 bc 93 0b 0d 3d 64 2a 18 3c
       0.009033527 -0.011901607 0.034434866 0.00928745
0002b0 21 9a ad 3c c0 63 c1 3c 62 04 d0 bc 1e 72 fe bb
       0.021191658 0.023607135 -0.025392715 -0.0077650687
0002c0 1b 80 93 bd bc 51 84 bd ab 14 b5 bc 80 7e b8 3c
       -0.072021686 -0.06460902 -0.022104582 0.022521257
0002d0 09 73 2a 3c d7 a5 98 3c 47 0b 7c 3d 46 3f 96 3d
       0.010403403 0.018633766 0.061534192 0.07336287
0002e0 f9 4e ee 3d 0f a9 08 3e 37 07 b7 3d bb f5 0f 3d
       0.116361566 0.1334574 0.08936923 0.035146456
0002f0 90 81 ba 3c d6 cb 60 3c 12 3a fa bc 70 8c 2d bd
       0.022766858 0.013720473 -0.030545268 -0.04237026
000300 d1 9c 6c 3b 7d b1 c2 bc 5b 35 c7 3b f0 27 dd 3c
       0.0036104212 -0.023766274 0.0060793585 0.026996583
000310 b5 3b 81 bc c9 48 d5 bc 02 6f ac bc 0d 32 90 3c
       -0.01577554 -0.026035683 -0.021049026 0.017601991
000320 1b 5c 12 bc 7c 76 12 bd dc ad 53 bc b9 f5 47 bd
       -0.0089330925 -0.035757527 -0.012919869 -0.048818324
000330 b7 64 eb bc 5e 0c 83 bd ed c1 72 bc b4 b0 5d 3b
       -0.028734548 -0.06398843 -0.014816743 0.0033827247
000340 2b 6c 18 3d 8d 74 20 3d f0 1d 52 3d d8 d7 7a 3d
       0.037212532 0.03917365 0.051298082 0.061241
000350 7d 01 b9 3d 77 54 1a 3e 76 ca d9 3d 71 5b bc 3d
       0.09033487 0.15071283 0.106343195 0.091971286
000360 ba db 04 3d 1b 80 7f 3d 4d 4e 36 3d 2e b1 19 bb
       0.03243611 0.06237803 0.044508267 -0.0023451555
000370 6c 5e ee bc 8a 05 31 bc ed 0d 97 bc 9e 8f 9c bc
       -0.029097758 -0.010804543 -0.018439258 -0.01911145
000380 63 6d a6 3c b8 77 10 bc 6f 20 3d bc 7b 73 aa bc
       0.020315832 -0.008817606 -0.011543377 -0.020807019
000390 e0 71 bb 3b b5 54 64 bb c2 51 03 bd c6 4c 63 bd
       0.005720362 -0.0034840528 -0.032060392 -0.05549314
0003a0 72 1b 0e bc 9f 39 b3 bc 2b eb 81 bc c4 53 79 3c
       -0.008673536 -0.021878062 -0.015859207 0.015217725
0003b0 64 62 29 3d 9a e3 3e 3d 73 15 50 3d 99 7a 83 3d
       0.0413536 0.046603777 0.050801706 0.06419868
0003c0 08 46 ca 3d 8b 48 a1 3d 53 41 b2 3d 08 8a a5 3d
       0.09876639 0.078751646 0.08703866 0.08082968
0003d0 33 55 63 3d 69 a1 06 3d 62 86 13 3d 47 4b 09 3d
       0.055501174 0.032868776 0.03601683 0.033519056
0003e0 cc 46 81 bc 60 8a b7 3a 0a 1b 81 3c 28 55 99 bc
       -0.015780829 0.0014003031 0.015759964 -0.018717363
0003f0 3a 74 f6 bc 3a 96 d1 bc 4b 9e 04 3d f7 e6 bc 3b
       -0.030084718 -0.025584329 0.032377522 0.005764838

linear.bias f4 [10]
000000 aa 99 aa bd 45 68 2f 3e 62 4d 8c bd bc 13 c8 bd
       -0.0833009 0.1712962 -0.06850697 -0.09769389
000010 f7 e4 34 3d d4 6d 56 3e 50 87 3c 3b 28 4f 0e 3e
       0.04416367 0.20940334 0.0028767176 0.13897383
000020 1d 14 9b be 66 0e 63 bd
       -0.30288783 -0.055433653
