.torchcommit/run_1/model.pth (torch, 33237 bytes, 2 tensors)

linear.weight f4 [10, 784]
00000000: 5c73 96bb 1713 9fbc a599 b5bb 93fe f03b
00000010: 2174 70bc b314 e1bc 3850 7abb e374 84bc
00000020: 9ca1 053c fac9 013d 8f09 0b3d 6e43 e6ba
00000030: 9c08 a13c a3fd 4dbc bdc9 c8bb 3341 13bc
00000040: dc72 413c 03be 0f3d ee34 28bc 01ef 2dbb
00000050: ba18 9f3c 6e7f ac3c 95ea 8b3c 6e1d feba
00000060: 3c81 2cbc 2562 c93c ae82 6bbc e78d 88bc
00000070: 2e5b bdbc 1c2c a63c 6afd 44bc 531c cd3c
00000080: 7838 7a3c fc93 0f3d 79a9 d23c 36c4 e83b
00000090: 482d 79bb 3bfb 2ebc 5352 3ebc c226 8ebc
000000a0: bdb7 dc3c 5409 a8bc ec51 79bc 8de9 7abc
000000b0: 7208 6f3c 30f9 1c3c 7a49 ebbc a1fb cd3c
000000c0: 85ae 043d a1b1 393c 865f 533c 5d8c 5bbc
000000d0: d7e8 26bc 57b6 343c b73b 053c 2e13 e0bb
000000e0: 4720 a43c ce88 e33c 26b2 f63a 6575 dfba
000000f0: a70d a9bc 9ac1 07bd d226 b4bc 59ce 83bc
00000100: 8c59 e13c b7d2 c03b 373c a1bb d73f 08bd
00000110: 526a edbc 0d86 2ebb bcfe e7bb dac2 16bc
00000120: 4636 223c e2cd b73b bc0a 04bd 812a cdbc
00000130: 67f3 e3bb 15be 913c adfa 05bd c9cb 053d
00000140: ac6a 3f3c 20f5 e0bc b60b 0fbd 4c4a adbc
00000150: 08af f1bc 85ae 993c b444 0d3d 394a 033d
00000160: d615 d33c 1a9e 8ebc 1c76 9ebc 433d 94bc
00000170: 6951 9f3c f41c 143b 8134 22bd cd33 563b
00000180: 4c74 d8bc 2097 d1bc 7b6b c2bc 77fb 4fbd
00000190: b901 febc a948 7639 ff9f 86bd 073a cbbb
000001a0: 9049 53bb efd1 b8bb a06d 723c 41b0 ab3c
000001b0: 5b7d ce3c 403e 16bc 0c48 de3b 5a08 c2bc
000001c0: 9194 eabc 39a0 b5bc 3d77 3f3c 283d 943c
000001d0: 7c89 8a3c 3ec0 4abc f098 233b a2e9 31bc
000001e0: da88 123a 7f02 2ebc ed99 63bc d0f5 4dbd
000001f0: 7142 323c da15 c73c e28b dfbc 27f3 be3b
00000200: cf3b c33c b47f dfbb 26c9 3d3c a1f8 29bd
00000210: 260d fdbc c53e 45bd 0956 0fbd 5e8a aebb
00000220: 9a6e 17bd 16f1 f23c 6c39 893c 6835 0ebd
00000230: 8aef 71bc aacd 043c 5637 07bc c62e aa3b
00000240: 37df 073d 1042 e93c aa6b 36bc f28d 0ebc
00000250: 6746 0cbd 3504 f4bc def0 d1bc 129e 2fbd
00000260: a8c2 b93b 55e0 303d f81a 4c3d ecbb c13d
00000270: 1ec0 863d a15d 533d 4400 713d e293 263d
00000280: 715c 44bc 3581 b73b b13e 4ebc 2af1 1cbd
00000290: 2fd1 ab3c bc11 873c 6230 0fbd 538d 0d3c
000002a0: 659b c4bc 347d c7ba edec 00bd 55cd bebc
000002b0: 2b34 12bb 9567 29bd c830 19bd f3e3 3ebc
000002c0: 6ffd 83bd 5f8c 23bd 67e4 b0bc 95d1 d5bc
000002d0: 68ff 353d 7f93 253d 0a22 0d3d fac4 ee3d
000002e0: b7b5 b63d ad93 ca3d ae12 c83d 14f8 923d
000002f0: 27f9 133d a34d 93bb 30c5 113c aa49 ee3a
00000300: 0bdd 24bd 46a6 073c 558e c0bc 8907 0e3c
00000310: d29d 00bd f927 2bbc 0d2d 0cbd 2fc0 0ebb
00000320: 85f2 26bd 776a 1ebd bef1 1fbd 81e3 debb
00000330: ef78 19bd 0da5 19bd e4fc 2dbd 69bd f4bc
00000340: 749b a13b 5371 363d 337d e53c 1338 913d
00000350: 63c9 dd3d d13b d23d 8f45 023e 2393 7c3d
00000360: f45a 323d c77e 4a3d 5559 903a ece9 d7bc
00000370: d779 71bd 08d7 32bd 6945 e13a 0184 bdbc
00000380: 3003 d5bc 21a0 c5bc b010 dcbc e1d6 753c
00000390: f02b e9bc 1a6f 3abd 9f4e 24bc 8916 2dbd
000003a0: bbfb b8bc 3172 b2bb 0c4f 1f3c 007c c93c
000003b0: 0512 083c 94da 3b3d 99a1 683d addf 823d
000003c0: 949b d63d 956d d53d 17d9 ae3d 3637 e23d
000003d0: f410 403d dc89 823d 5dab 433d 4acb cf3b
000003e0: c4e1 02bd ca82 77bc 676e 523c d468 11bb
000003f0: d47b 6139 833e cabb 881d a5bc b775 2c3b
-0.0045913886 -0.019418282 -0.0055419975 0.0073545664 -0.014676125 -0.02747569 -0.0038194787 -0.016169017
0.008156206 0.03168676 0.033944663 -0.0017567703 0.019657426 -0.012572679 -0.0061275647 -0.008987713
0.01180717 0.03509332 -0.010266526 -0.0026540163 0.01942097 0.021056857 0.01707963 -0.0019387433
-0.010528859 0.024582932 -0.014374418 -0.016669227 -0.023114767 0.020284705 -0.012023309 0.02503792
0.015272252 0.03505324 0.025715576 0.0071034683 -0.0038021374 -0.010680015 -0.011616307 -0.017352466
0.026943082 -0.02051226 -0.015217286 -0.015314472 0.014589416 0.009580895 -0.02872156 0.0251444
0.032392997 0.011333854 0.0129011925 -0.013400164 -0.010187349 0.011029801 0.008131913 -0.006838224
0.020034922 0.027775194 0.0018821403 -0.0017048536 -0.020636393 -0.033143617 -0.021991167 -0.016089605
0.02750852 0.005884494 -0.0049205082 -0.033264007 -0.028981362 -0.0026630193 -0.0070799273 -0.00920173
0.009900635 0.00560926 -0.0322368 -0.025044682 -0.006956506 0.017790833 -0.032709766 0.032665048
0.011683147 -0.027460635 -0.034923278 -0.021153592 -0.029502407 0.018759975 0.03448935 0.032053206
0.025767248 -0.017409373 -0.019343428 -0.018095618 0.019448 0.0022600265 -0.039600853 0.0032684684
-0.026422642 -0.025584757 -0.023732891 -0.050776925 -0.03100668 0.00023487456 -0.065734856 -0.0062019858
-0.0032239892 -0.0056402604 0.014796644 0.020958068 0.025206259 -0.009170115 0.006783491 -0.023685623
-0.028635295 -0.022171127 0.011686143 0.018095568 0.01691126 -0.012374936 0.0024962984 -0.010858925
0.00055898505 -0.010620712 -0.013891679 -0.050283253 0.010880099 0.024302412 -0.027288381 0.005827326
0.02383223 -0.0068206433 0.011583602 -0.041496877 -0.030890059 -0.048155565 -0.03499416 -0.0053265532
-0.036970712 0.029655974 0.016751014 -0.0347189 -0.014766583 0.008105675 -0.008252939 0.005193564
0.03317186 0.028473884 -0.011134068 -0.008700835 -0.03424683 -0.029787162 -0.02562755 -0.042875357
0.005668957 0.04318269 0.049830407 0.094596714 0.06579612 0.051602963 0.058838144 0.040668376
-0.01198493 0.0056001195 -0.012588189 -0.03831593 0.02097377 0.016487949 -0.03495825 0.008639651
-0.02399988 -0.0015219809 -0.03147595 -0.02329127 -0.0022308927 -0.04135855 -0.037400037 -0.011651027
-0.06444823 -0.03992879 -0.021593286 -0.026100913 0.044433028 0.040423866 0.03445629 0.11658664
0.08921378 0.09891448 0.09769188 0.071762234 0.036126282 -0.004495339 0.008897111 0.0018179913
-0.040249866 0.008279389 -0.02350537 0.008668789 -0.03140051 -0.010446542 -0.03422265 -0.002178203
-0.04075863 -0.03867575 -0.039048903 -0.006802023 -0.037468847 -0.03751092 -0.042477503 -0.029875474
0.0049318615 0.04454167 0.028013801 0.070907734 0.10829427 0.10265315 0.12721847 0.061663758
0.04354377 0.04943731 0.0011012951 -0.02635666 -0.058954086 -0.0436621 0.0017186824 -0.023134233
-0.026002496 -0.024124207 -0.026863426 0.015004844 -0.028463334 -0.04551611 -0.01002851 -0.04225782
-0.022580972 -0.0054457416 0.009723436 0.02459526 0.008305077 0.04586275 0.056794737 0.06390319
0.10478893 0.10421292 0.085375 0.11045687 0.046891168 0.06373951 0.047770847 0.0063413726
-0.031953588 -0.015106866 0.012843705 -0.0022187727 0.00021503802 -0.0061720028 -0.020155683 0.002631528

linear.bias f4 [10]
00000000: c487 adbd 81a4 293e 5c51 93bd 0630 29bd
00000010: a629 9b3d a4ec 483e 443c 82bc 99c9 f93d
00000020: 52ca 9abe 39d6 07bd
-0.08473161 0.1656666 -0.071932524 -0.041305564 0.07576303 0.19621521 -0.015897878 0.12196655
-0.30232483 -0.033163283
